Assets/Kendi Prefab/KureAjan.onnx (onnx, 105556 bytes, 12 tensors)

network_body.observation_encoder.processors.0.normalizer.running_mean f4 [52]
00000000: 527e 1f3f 6a93 563e af64 2b3e 7b87 293f
00000010: bc6a 233f 192f 513e 3417 213e 054a 293f
00000020: b3c2 213f 9d43 433e 6daa 353e 921f 2c3f
00000030: 94a1 2c3f 75bc 363e bead 163e 6c1f 2b3f
00000040: 8a1c 283f 3f97 1f3e b1ee 3f3e 085e 303f
00000050: 486e 383f 81da 113e 765b 0c3e 4532 2e3f
00000060: 7818 2f3f 9d4e f23d 0472 4a3e 3028 353f
00000070: 47f3 433f 3828 dc3d 6c0e 023e dd8c 313f
00000080: fb83 343f 15da b03d ab7e 553e e4b7 393f
00000090: e390 4d3f 0edb a23d 4b7e f03d c4ae 343f
000000a0: 06c5 373f b4d3 7f3d d1f3 603e 99d0 3d3f
000000b0: d4d9 543f f768 753d e15d de3d 8166 373f
000000c0: d2fa 383f 6b45 3f3d 063f 6c3e 1465 413f
0.62302125 0.20954672 0.16737626 0.6622235 0.6383474 0.20428123 0.15731508 0.6612857
0.6318771 0.19068761 0.17740794 0.6723567 0.6743405 0.17845328 0.14714715 0.6684482
0.6566855 0.1558504 0.18743397 0.6889348 0.72043276 0.14243509 0.13706765 0.68045455
0.6839671 0.118314005 0.19770056 0.70764446 0.76543087 0.107498586 0.12700814 0.69355565
0.70513886 0.08635346 0.20849101 0.7254622 0.80299205 0.079519376 0.117428385 0.7057917
0.7178501 0.062457755 0.21968009 0.7414642 0.8314488 0.059914555 0.1085775 0.71640784
0.7225772 0.04669706 0.23070917 0.7554486

network_body.observation_encoder.processors.1.normalizer.running_mean f4 [3]
00000000: ee18 2240 8d40 953e dbaf c63f
2.5327716 0.2915081 1.5522417

network_body._body_endoder.seq_layers.0.weight f4 [128, 55]
00000000: 6171 a7bd 18da 2b3e 6c89 f5bd cc7e 4e3c
00000010: e764 543e 39d5 5a3c 450a 813e ca4c acbc
00000020: 5f02 033d 35b3 4abe 6689 a33d d8bd f6bd
00000030: 856d 923a 55bc ae3c 4d71 fcbd 45c5 72bd
00000040: 26f2 8c3d 8d34 2dbe df18 d4bd 9fd1 77bd
00000050: 988a 9e3c f146 adbe 8c4e 5f3e 1dda 07bd
00000060: 099f ae3d 66f9 1dbe 36c4 f53d f2fe 9a3c
00000070: eab2 f93c b71d 283d 28e9 7f3d 0874 563e
00000080: 8fb9 41bd 9b3b 13be 6684 01be 838d 003e
00000090: 8348 39be 4366 293e f8b5 42be 4318 d1bd
000000a0: 5e14 b9bd cd9b 2fbe 28b7 6f3e 88b6 bd3c
000000b0: e6da 06bc e2af b0be fcc8 cdbd 2df5 8dbd
000000c0: 1895 a23d 81f9 13bd 3031 e5bd 2997 963d
000000d0: f81b 2bbd 6495 cd3d 6249 96be d59a 75bd
000000e0: 31a0 433c bac8 373c 6fd2 c2bd 18af 333e
000000f0: 6073 333d d9b2 51be 47fb df3d be29 803c
00000100: 15bb cc3c 846b f2bd 4a4d 2cbe c2ad 7fbe
00000110: f023 8f3e 8ec1 a4bd a042 d73d 2715 713e
00000120: 8ae3 b53d f7ed 233e b512 933d af50 8b3e
00000130: 3dff d8bd a297 c33c cc74 7cbe 4e4b 833e
00000140: 6b20 9dbd 1f1f 8c3d 1fb7 73bd 4318 393d
00000150: 8dd7 fabd a78b 23be 5ccc 033e 7e92 b6bd
00000160: eacc 93bc b78f 373d 16dc 54be 3946 05bd
00000170: ff97 dbbc 5f43 d63c 9140 7b3e 6bc5 9cbd
00000180: 6ba4 2dbe d33b 07be b607 93bd a88d 83bd
00000190: 35e9 36be 5e65 d93d fa6e 2b3d ae3f a03d
000001a0: 1f4e a1bd 1679 d83d b8cf d5bd 87d8 3fbd
000001b0: c032 8bbd 07fb e93d 5904 ab3e 13ee 15bd
000001c0: a63f e8bd f761 703e 958f edbe 30db 1b3e
000001d0: b654 e63b 78c5 d7bc 6679 ed3d 7d93 ea3d
000001e0: 3763 7c3e 4b2b 4f3d 881b 9b3d f113 62be
000001f0: b8a0 353d 7268 90bc f082 82bc 29f3 2abe
00000200: bf8f 19be 6ac1 2a3d d762 f9bd b3bb 8e3e
00000210: c9f4 8d3c edcc 09be 5b79 ccbd dd9e cf3c
00000220: c18a ac3a f83f 5f3e 55a0 fe3c acf9 2abe
00000230: 02ca e43d 912c 04bd 4037 3ebe ee53 073e
00000240: bf4b e3bb 8cf6 81be c5b0 0a3d a633 323e
00000250: e996 79bc 72da 753d 7cda 0bbd db34 933d
00000260: dd90 f3bd 64a7 5cbe 1029 56bd e934 633e
00000270: 42de 0abe 251b 553c 2695 7fbe 18af 9bbd
00000280: 84ce 863d 9411 b13d 55f0 91be b776 2e3c
00000290: 6af9 c3be bdba 0a3e aaa9 61bd 2025 54bd
000002a0: f699 04be f479 b1bc 0ebf b1bd a6a9 623e
000002b0: 70ad 3a3e 59bc 9e3d da59 49be ef61 303d
000002c0: fdd5 9cbe a442 413e ec3b 34be 20f2 37be
000002d0: 3bdb 1abe 395f a23d c53e 82bd 7b92 2b3e
000002e0: a836 073e 92fe 813d 5497 8d3d 8648 14bc
000002f0: 7588 84bd 5a97 263e a605 85be 80f9 91be
00000300: e3fc 20bd dc4b efbd 11b3 ffbd 7614 a438
00000310: 1c58 263e 85f8 073e 3d0a 2fbe f550 083d
00000320: 211b 353e 336b 7c3e d7d9 203d b974 a53d
00000330: 7baf 00be 9710 00bd 97b2 b9be 7df9 b23c
00000340: 0c67 993d 29be 5bbe 998b 133d d4f5 2dbd
00000350: c853 863d 7edf b23d 2ac9 19be f35f 343e
00000360: 1489 4e3e cd0f a33d 1c9e 7c3d a410 c4bd
00000370: 8a4a 0cbe 827e 373e 6ea2 22be 2cef ce3c
00000380: 2a13 de3c 1d3b 31be 385d 0c3e 37e3 9dbc
00000390: 8ab2 b9bd a90d 9dbe abda aabb 9cdf bc3c
000003a0: 118f 0f3d db4a d9bd ff8a 30be 88f3 423e
000003b0: 7721 15bc 4f83 18be 0083 f0bd 9160 4bbd
000003c0: 1b3f e03d 0e36 61be 9385 60be a6e4 f03d
000003d0: ab1f 44bd da11 9bbe b3e8 603c 3fc7 10bd
000003e0: 64a9 663c 43c3 1dbd b349 9dbd 7103 203e
000003f0: 3837 d13d 9728 c5bd 1cca 693d 09c3 ac3d
-0.08175922 0.16782415 -0.11989102 0.012603473 0.20741616 0.0133565 0.25203148 -0.02103271
0.031984683 -0.19794925 0.07985191 -0.120479286 0.0011171555 0.021330038 -0.12326298 -0.059270162
0.06882124 -0.16914578 -0.10356306 -0.060502645 0.019353196 -0.33843186 0.21807307 -0.033166993
0.08526427 -0.15427169 0.12000315 0.018920396 0.03048082 0.041043963 0.062478215 0.209427
-0.047296103 -0.14378206 -0.12648162 0.12553982 -0.18094067 0.16542916 -0.19014728 -0.10209706
-0.09037088 -0.17149277 0.23409712 0.023158327 -0.0082309 -0.34509188 -0.100481 -0.06931529
0.079385936 -0.036126617 -0.111910224 0.0735305 -0.04177472 0.100382596 -0.29352862 -0.059962112
0.011940048 0.011217291 -0.09512793 0.17547262 0.043811202 -0.20478381 0.10936599 0.015644904
0.024991551 -0.11836913 -0.16826358 -0.24968627 0.27957106 -0.0804473 0.105107546 0.23543225
0.0888129 0.16008745 0.071813025 0.27209994 -0.10595558 0.023876015 -0.2465393 0.2564339
-0.07672199 0.068418734 -0.05950081 0.045189153 -0.12248144 -0.15971242 0.12870926 -0.0891466
-0.018042047 0.04481479 -0.20787081 -0.032537673 -0.026805876 0.026155172 0.24536349 -0.07654842
-0.16957252 -0.13206415 -0.07179205 -0.06423503 -0.17862399 0.106150374 0.041853882 0.07824646
-0.078762285 0.1056997 -0.1044001 -0.046837356 -0.06796789 0.11424833 0.33401754 -0.036604
-0.11340265 0.2347487 -0.46398607 0.15220332 0.0070291413 -0.026339278 0.115954205 0.114539124
0.24647222 0.050578397 0.075736105 -0.2207792 0.044342726 -0.017627928 -0.015931576 -0.1669432
-0.14996241 0.04168836 -0.12177055 0.27877578 0.017328637 -0.13457079 -0.09984084 0.025344307
0.001316391 0.21801746 0.031082312 -0.16696805 0.111713424 -0.032269064 -0.18575764 0.1321561
-0.00693652 -0.25383413 0.033859987 0.17402515 -0.015233734 0.06002278 -0.03414391 0.07187816
-0.11892865 -0.2154823 -0.052285254 0.22188152 -0.13561347 0.01300696 -0.2495924 -0.07601756
0.065823585 0.08645931 -0.2850367 0.010648421 -0.38276225 0.13547798 -0.055093445 -0.051793218
-0.12949356 -0.021664597 -0.08679019 0.22135028 0.18230224 0.07750768 -0.19663182 0.043062147
-0.3063201 0.18873078 -0.17600983 -0.17963457 -0.15122692 0.079283185 -0.063596286 0.16755097
0.13204443 0.063473836 0.06913629 -0.009050494 -0.064713396 0.16268674 -0.25980872 -0.28510666
-0.03930367 -0.11684391 -0.12485326 7.8239405e-05 0.16244549 0.13278396 -0.1709375 0.03328033
0.1768613 0.24650268 0.03927025 0.08078904 -0.1256694 -0.03126582 -0.36269066 0.02184748
0.07490358 -0.21459259 0.036021803 -0.042470768 0.06558949 0.08734034 -0.15018144 0.17614727
0.20169479 0.07961998 0.061674222 -0.095734864 -0.1370031 0.17919353 -0.15882275 0.02526053
0.027108748 -0.17307706 0.13707435 -0.019273384 -0.09067257 -0.30674484 -0.0052140555 0.023055844
0.035048548 -0.10609981 -0.17240523 0.19038212 -0.009102217 -0.1489384 -0.11743736 -0.04965264
0.109495364 -0.21993276 -0.21925955 0.11762361 -0.047881763 -0.30287057 0.013727355 -0.035346266
0.014078472 -0.038516294 -0.07680073 0.15626313 0.1021561 -0.096268825 0.057077512 0.084356375

network_body._body_endoder.seq_layers.0.bias f4 [128]
00000000: bbd2 b23c 2878 793c cfba 0e3c 6f72 08bd
00000010: e7b9 cbbc 7064 dfbc a9f7 173c ecec 073d
00000020: f52d 53bd fa1a d83c 7456 f2bc 7076 253c
00000030: 9932 35bd 2af3 2a3d 0f8a 30bd 2f91 3f3c
00000040: 63ff 27bc b494 07bc 658c c33c d4c2 3cbd
00000050: 5909 90bc 028f 2dba 49ea 56bd b685 563d
00000060: 2b9b 4bbd f725 863c 6158 5bbd 3236 a73b
00000070: b870 8a3c 56e4 41bc ccbf 5fbc cfe3 f2bd
00000080: 37d0 1c3c 077c 05bd dbf9 4f3d e500 e8bd
00000090: a47c 253c 4a77 52bd 9223 22bd 58e5 52bd
000000a0: 4299 9c3c 19ac 10bb eb24 503c 12ae e03b
000000b0: 7968 0cbd 67bb 9239 5478 c93c 4afd d5bc
000000c0: 59af 123c 0f6e 4a3c eb11 403d 3555 173c
000000d0: ebe0 403c c0cb 1c3d 6708 84bc 27bc 813d
000000e0: a6ec 673c 483f 8f3c 407d acbb 8968 a5bc
000000f0: cddb 37bd 345f 8db9 efc5 093d e258 983d
00000100: 76b7 533c a08b c13c 5602 85bb 6f3b 3e3d
00000110: b6ff 5bbd 1650 5bbd 69d3 133c 3c46 683c
00000120: fb81 4dbd 621a 67bd 5531 1dbc d2ab 543c
00000130: d1b6 60bd 6d9b 113d 852d dcbc 0b79 9a3c
00000140: 76ed 60bd 70a2 0dbc 3117 093d df03 6bbd
00000150: 0260 86bc c02d a5bc 069f 04bd 39eb 08bd
00000160: 279b 07bd f537 3dbd d206 46bc 01e3 1a3c
00000170: 0ce5 f33c 3211 253d 2d76 c7bc 1a65 e1bb
00000180: d6ba 453d d1f6 e9bb d869 28bc 8a32 76bc
00000190: 77db fa3b 7b75 003d 6e98 93bc 5cb8 23bd
000001a0: 53f8 99bc e1c5 7dbb 35a3 2c3b 5a3e 34bd
000001b0: 17ba 4d3d e30f 8eba 782b b0bc 96f9 e73c
000001c0: 2eac 1fbd 0db5 9ebc cc52 773c 36cc 2c3c
000001d0: a0fb 9bbb 0958 3bbd ba2f a33d 0c34 b83c
000001e0: de43 133c 52f4 3abb e459 0d3c 277b 87bb
000001f0: 8623 97bc 66bf 103b df84 07bd 33a3 e73c
0.021829 0.015226401 0.008711531 -0.033312257 -0.024868919 -0.027269572 0.009275355 0.03318493
-0.0515575 0.02638005 -0.02958224 0.0100990385 -0.044237707 0.041735806 -0.043100413 0.011692329
-0.01025376 -0.0082752 0.023870656 -0.04608424 -0.017582582 -0.0006620736 -0.052469525 0.05237361
-0.049708527 0.016375525 -0.05355108 0.005102896 0.016899452 -0.011834225 -0.013656568 -0.11859857
0.009571127 -0.032588985 0.05077539 -0.113282956 0.010100517 -0.051383294 -0.039584704 -0.05148825
0.019116048 -0.0022075234 0.012704114 0.0068566883 -0.03427932 0.00027986916 0.02459351 -0.026121754
0.008952939 0.012355342 0.046892088 0.0092366235 0.011772375 0.03828025 -0.016117288 0.06334715
0.0141555425 0.01748623 -0.0052639544 -0.020191448 -0.044887353 -0.00026964548 0.03363603 0.07438828
0.012922158 0.023626149 -0.0040591164 0.0464434 -0.05371066 -0.053543173 0.009022572 0.014176901
-0.050172787 -0.056421645 -0.009594281 0.012980418 -0.054861847 0.035548616 -0.026877174 0.018856546
-0.05491396 -0.008644685 0.033469383 -0.05737674 -0.016403202 -0.020163417 -0.03237822 -0.03342745
-0.03310695 -0.046195943 -0.012086587 0.009453536 0.029772304 0.0402996 -0.024348343 -0.0068785073
0.048273884 -0.0071400185 -0.010279141 -0.015026698 0.007655557 0.031362038 -0.01801702 -0.03997074
-0.018795168 -0.0038722681 0.0026342396 -0.044004776 0.050226297 -0.0010838475 -0.021505103 0.028317254
-0.038982563 -0.019373441 0.015095424 0.010546735 -0.0047602206 -0.045738254 0.079680875 0.022485755
0.008988349 -0.0028526974 0.008627389 -0.004134554 -0.018449556 0.0022086739 -0.0330857 0.028276062

network_body._body_endoder.seq_layers.2.weight f4 [128, 128]
00000000: f652 5b3d 276c a4bd 500d e6bd 1feb a93c
00000010: 3b9a 0b3e de85 efbd a989 0fbe 83b9 57be
00000020: f37e 40bd 1cf0 83bd 3543 823c 6571 3ebe
00000030: 180a b03d 51e4 52ba 52f0 fe3d 1b2c 8fbd
00000040: 275a 86bd 1e09 cbbc dda7 613d 5104 afbb
00000050: fb7f 603d 6ddb 2fbc 05ce ac3d ea1d a6bd
00000060: 3e3f 1e3d 3eb5 a03d bdb6 edbc c6f0 923c
00000070: 1adc 2b3d 711f 5e3d 73b8 08bd ba2d 893c
00000080: 4d00 86bc e9b3 a53d d6c6 e33d d9bd c4bd
00000090: fefd 273c 1234 ccbd c918 06bc 65db 4dbd
000000a0: a113 c8bd ab70 0ebe 5ff5 36be 0db1 8ebd
000000b0: c23f a8bd 30fb 363e 5dac c8bd 1991 933d
000000c0: 8142 85bd 06df 4b3d 3711 4ebc a942 31be
000000d0: fbf2 b3bd 33ba 0abd 2021 c5bd a996 00bd
000000e0: 8524 82bc 634f c9bd 00c9 963d 000f 7b3c
000000f0: cb48 bebd 8ad5 bd3d 5edc 383e 64b3 20be
00000100: bd17 27bd 1ae5 11be fb1d 3abd 8323 8ebe
00000110: 0471 30bd 4ecc 89bc 6e46 6dbd aad9 3fbd
00000120: 8844 b63b 460a 8f3e eaef d63c c479 663d
00000130: 2eaf e0bc 9510 ecbd 53b4 1b3e 1db8 92bc
00000140: e555 4c3d aaaa 12bd 359e a4bd 4930 873d
00000150: 26f9 bc3c 9a7e 473d e5fb 0b3e c76d 1b3e
00000160: a829 59be 897a 383c 34dc 103c eb79 9ebd
00000170: ef63 a03d e251 47be d061 fb3c ea54 733c
00000180: 60bb c3bd 9a60 55bc 7c58 1cbd 42df 4fbe
00000190: 5e41 053e 7476 933d 678b 62bd ffbe b2bd
000001a0: d224 11be 2fb6 643d 8a52 b8bd 0d6b f3bd
000001b0: 8d43 97ba 9ea1 063d e23a 2dbd 630c bc3b
000001c0: b877 3ebc 498c 1b3d 339f 90bd ce97 b73c
000001d0: 8007 ec3d cd1b 90bd a9e1 9dbd d48b 55be
000001e0: a00f 1bbe e3e3 5ebd 94fe 0ebe e6c9 443e
000001f0: 3335 323e 6db0 0e3e 7a52 2cbe e8ef 30bd
00000200: 4485 0d3e effb d3bd 3e9f 613d be42 413c
00000210: de2b cdbd 41f8 65bd 54c8 94bd 3962 a4bd
00000220: 8dfa abbd 6934 cbbd d77f b1bd eed1 743d
00000230: 509a 2b3d fbf3 60bd 9560 c7bd 5d20 d3bd
00000240: 219d c03c d052 7a3d 625c 2abd 5fd0 f2bd
00000250: 6a1f 9dbc 4bb2 113d 65c7 36bd 5cee 3dbd
00000260: 063a 6a3d e91c 15be c7b7 8a3d e542 15be
00000270: 6f75 9ebd 042b 23be bbc9 06be b4aa 8ebc
00000280: 7835 e73d ef14 a03d b549 22bd f2a4 06ba
00000290: 7cb0 853d 9a8f 883b a852 e7bc af5b 80ba
000002a0: 771a 8dbd 1045 d7bc 9212 833d 19b0 f9bd
000002b0: 5f18 9cbd 65a1 ea3c 59a6 11be ab42 aebb
000002c0: 8218 b33c 5c8d a03d ad81 973d 4108 5f3d
000002d0: 60ad 1e3d d137 fbbd 1b32 9cbd 7e25 b6bc
000002e0: 2e42 23be 891d 02be 2d79 743d 615a d83b
000002f0: e7e3 fabd 10f8 11be 186c 003d 02ec ca3c
00000300: 20a0 953e dcc5 9a3d 8ac2 2bbc fc9f b8bc
00000310: a78e 83bc 0fed 9bbd 8e76 a13d a99d 3dbd
00000320: c12b f23b a0fa 193d 2665 803d 932b a93d
00000330: bbaf d03d a970 903c 8701 89be 09ba 99bd
00000340: 8f48 f5bd b39d 76bd 6948 153e 10fe 303e
00000350: 1767 82bd a4a9 25bd fae4 96bd f0dc 88bd
00000360: e2fa 9d3c 508c 633c 4815 32bd a566 03bc
00000370: 953b 563e 98ef 823d cfbe 17be d291 ebbd
00000380: dcad 3cbe e6f9 25bd 8055 063e 3d5a 26bd
00000390: 358c ff3d d84e 293e 1ed3 953d a6a8 ecbd
000003a0: ec33 153e f159 29be e6f2 5dbd 71e4 0e3c
000003b0: ebf1 9738 cb7f 6dbd 5776 e7bd 38f8 333e
000003c0: 7699 dc3d 28a5 38bc 25ee 8cbd e4c3 0abd
000003d0: acd7 f83c 28ad 963d 8ecb f1bb 4a7a 11be
000003e0: 99f2 e9bc 4ad6 c7bc 174c 1e3c 30ce 1abd
000003f0: b18d 54be 558c febd ed20 bb3d aed1 a4bd
0.053545915 -0.08028441 -0.11233008 0.020741997 0.13633053 -0.11695455 -0.14017357 -0.21066861
-0.04699607 -0.064422816 0.015901187 -0.18597944 0.08595675 -0.0008044886 0.12448181 -0.06990834
-0.06560164 -0.02478462 0.055091728 -0.0053410907 0.05480955 -0.0107334675 0.084377326 -0.081111744
0.03863453 0.07847069 -0.0290178 0.017937075 0.041957952 0.054229204 -0.03337903 0.016745437
-0.016357565 0.08090956 0.11121909 -0.09606523 0.010253428 -0.09970869 -0.00818462 -0.05025806
-0.09769369 -0.13910167 -0.17867039 -0.069673635 -0.08215286 0.17869258 -0.09798501 0.072054096
-0.06506825 0.04977324 -0.0125773465 -0.17310585 -0.08786579 -0.03386898 -0.09625459 -0.03139368
-0.015886554 -0.09829595 0.073625565 0.0153234005 -0.09291228 0.09269245 0.18052813 -0.15693432
-0.040794123 -0.14247552 -0.045438748 -0.27761468 -0.04307653 -0.016821053 -0.057928495 -0.04683844
0.005562369 0.27937526 0.026237447 0.05626847 -0.027427282 -0.115266 0.15205507 -0.017910058
0.049886603 -0.03580729 -0.08037988 0.066010065 0.023068022 0.04870472 0.13670309 0.15178595
-0.21207297 0.011259683 0.008841563 -0.07738098 0.07831561 -0.1946483 0.03068629 0.014851788
-0.09557223 -0.01302352 -0.038170323 -0.2030001 0.13013217 0.072003275 -0.055308726 -0.08727836
-0.14174202 0.055837806 -0.09000118 -0.11885653 -0.0011540517 0.032868974 -0.042292483 0.0057387813
-0.011625223 0.037975583 -0.07061615 0.022411253 0.11524868 -0.070365526 -0.07709057 -0.20854121
-0.15142679 -0.05441655 -0.13964301 0.19217643 0.17403106 0.13934489 -0.16828337 -0.043197542
0.13820368 -0.10350787 0.055083506 0.011795698 -0.100181326 -0.056144956 -0.07264772 -0.08026547
-0.08397398 -0.09922106 -0.08666962 0.059770517 0.04189521 -0.054920178 -0.097352184 -0.10308907
0.023512425 0.061114132 -0.04159201 -0.1185615 -0.019180018 0.035570424 -0.04462375 -0.046369895
0.05718424 -0.1456181 0.06773334 -0.145763 -0.077372424 -0.15934378 -0.13162892 -0.017415382
0.11289495 0.07816493 -0.039621074 -0.0005136273 0.06527802 0.0041675093 -0.028237656 -0.0009792949
-0.068898134 -0.026278049 0.064000264 -0.12191791 -0.07621836 0.028641412 -0.14223613 -0.005318006
0.021862272 0.07839462 0.073977806 0.05445123 0.038739562 -0.122665055 -0.07626744 -0.022234675
-0.15943214 -0.1270658 0.059685875 0.006602571 -0.122505 -0.14254785 0.031353086 0.02477074
0.29223728 0.0755727 -0.010483393 -0.022537224 -0.016059233 -0.07613575 0.07883941 -0.046292935
0.00739047 0.03759253 0.062692925 0.08260264 0.10189768 0.017631846 -0.26758978 -0.075061865
-0.1197673 -0.060208987 0.14578404 0.17284417 -0.06367319 -0.040444985 -0.073678926 -0.066827655
0.01928467 0.013888434 -0.043477327 -0.008020078 0.20921166 0.06393355 -0.14818881 -0.115024224
-0.18425697 -0.040521525 0.13118553 -0.0406134 0.12477914 0.16533983 0.07315658 -0.11555605
0.14570588 -0.16538216 -0.054186724 0.008721457 7.245302e-05 -0.0579832 -0.113018684 0.17575157
0.10771458 -0.011269845 -0.0688136 -0.033878222 0.030376278 0.07357246 -0.007379002 -0.14206806
-0.028558062 -0.024394173 0.009661696 -0.037794292 -0.20757176 -0.1242911 0.091371395 -0.08047806

network_body._body_endoder.seq_layers.2.bias f4 [128]
00000000: 3a0a 13bd db18 463d 3cdf 0fbd ee56 ba3d
00000010: fd3d ce3c 1e36 683c e12b 0c3d e12a acbc
00000020: cb67 763d 0100 603d d3bb 953c 0117 503d
00000030: 5136 3e3d e98c 383d 1c1c 243d 3b68 1bbd
00000040: b574 313d 2827 06bc d284 023d b344 4ebd
00000050: 5b00 8abc 91a0 3b3d 61e1 cbbc 96d0 13bc
00000060: 1ea8 573d 54f9 94bd 832b dabb e034 0a3d
00000070: e907 2a3b 05aa 393d 4ffd 2bbc e24f 903d
00000080: c1c2 87bc 48de edbc 6051 11bd fd2b 2c3d
00000090: e6a3 213d dc63 a23d cbc7 843d 5067 87bc
000000a0: 3227 3cbd c878 a03c 7951 683d 3af3 1cbd
000000b0: e1e4 863b 99db 623d f521 5a3d ee42 6dbd
000000c0: 04be a0bd 322a 1f3d 9bdc 4abc 6190 f63c
000000d0: 93d4 8e3c 44d9 523d e19a df3c 1517 a83d
000000e0: 789c 4cbc f629 00bd c0a2 0ebd 2d17 cfbc
000000f0: fed6 333c 228f 553d 21ac 78bd 8c27 453c
00000100: 7794 a6bc a473 743c b7b8 c0bb 6a53 1fba
00000110: 4057 143d 4b35 34bc c2ee 30bd 574d fbbc
00000120: 38a9 fd3c a795 36bd e57c 0e3c fff8 91bd
00000130: 3da5 adbc 522d d2bc 759c 34bc cae5 d93c
00000140: 14e8 8fbc 5d55 23bd 307a 76bd d79d 1fbc
00000150: 4b75 13bc 785b 6cbd 91f5 2ebd 3ed5 70bc
00000160: 02fa 253c 8192 b9bc 6d0b ecbc d1ad c2bd
00000170: e501 b1bc 15a2 193d d94c 01bd df2b c73c
00000180: d69f 06bb ba9a 43bd 11a8 dd3c 510b 8cbc
00000190: 2392 733d 9f5b 873a be4b a73c 8617 c7bc
000001a0: 3bcb c43c 298c a7bd d9f4 963d 2e4c 07bc
000001b0: 1603 1bbd 697d cfbc 20e1 843d f68a d63c
000001c0: 2931 45bd 881f 7a3d 9381 8cbd 76c1 463d
000001d0: f953 12bd f123 ee3c 332b 8c3d cb19 873c
000001e0: 8876 bbbc a9b7 4c3d 72ae 3a3d 1b4a e4bc
000001f0: e1d6 253d 1b96 9b3d 0099 8dbc 0920 00bb
-0.035898425 0.048363548 -0.035125002 0.09098612 0.025176043 0.014173059 0.034221534 -0.02101654
0.06015758 0.054687504 0.018278038 0.05080319 0.04643852 0.045056257 0.04006587 -0.0379412
0.04332419 -0.0081880465 0.03186495 -0.050358485 -0.016845873 0.045807425 -0.024887742 -0.009021899
0.052650563 -0.07274118 -0.006658019 0.03374183 0.0025944656 0.04532816 -0.010497405 0.070464864
-0.016572358 -0.029036656 -0.035477996 0.042034138 0.039462946 0.07929203 0.0648342 -0.016528755
-0.045935817 0.019588843 0.056718323 -0.038317896 0.00411664 0.055385206 0.05325504 -0.057925157
-0.078487426 0.0388586 -0.012381698 0.030098142 0.017435348 0.051476732 0.027295532 0.082075275
-0.012488477 -0.031290017 -0.03482318 -0.025279606 0.010976551 0.052138455 -0.06071103 0.0120333545
-0.020334465 0.014920149 -0.0058813947 -0.00060777983 0.03621602 -0.010999034 -0.043196447 -0.030676527
0.030964479 -0.044576313 0.008696769 -0.0712757 -0.021196956 -0.025656376 -0.01102363 0.02659883
-0.017566718 -0.03987633 -0.06017512 -0.009742222 -0.009000133 -0.05770442 -0.04271466 -0.014699278
0.010130407 -0.022652866 -0.028814042 -0.09505809 -0.021607349 0.03750809 -0.03156743 0.024312912
-0.0020542047 -0.04775498 0.02705768 -0.01709524 0.05946554 0.0010326988 0.020421859 -0.024303209
0.02402269 -0.0818103 0.0737092 -0.008257909 -0.03784474 -0.025328355 0.06488252 0.026189309
-0.048142586 0.061065227 -0.06860652 0.048524342 -0.035724614 0.029069873 0.06844177 0.016491791
-0.022883669 0.04997984 0.04557652 -0.027867367 0.040488128 0.0759699 -0.01728487 -0.0019550344

action_model._continuous_distribution.log_sigma f4 [1, 2]
00000000: a436 c2bd d54b 05be
-0.09483078 -0.13017209

action_model._continuous_distribution.mu.weight f4 [2, 128]
00000000: 7091 6ebd fb88 743d 79a6 133d 4a56 023d
00000010: 4929 9d3d dc9d 42bd b71b a33d c9f2 56bc
00000020: 0496 c73c 347c d6bc 25e9 bf3c d9dc 6bba
00000030: 22c8 f4bb ed01 73bb 8667 0dbc 7c2a 85bd
00000040: 097b 5c3d 4368 693c 84a4 a0bd c755 693c
00000050: 2b9b a3bc c225 9d3c 75d6 f7bc caf6 98bd
00000060: 1607 ee3c 0d4f 09bd 92db ccbd 8f5f 3d3d
00000070: e0b0 383d 710e adbc 4067 713d 3637 e7bc
00000080: 50ef 83bd d170 af3c 330a 183d dcbf 04bc
00000090: 526a 493d b2d8 0db8 12ff 3d3d 10e7 293d
000000a0: 0f25 32bc 628c 073d 3d30 303a ae2d 3abd
000000b0: be61 db3b bcb0 ffbc ba1c ae3c 7253 373c
000000c0: 8686 fdb9 bad2 7c3d 62f0 8ebd b3d5 82bc
000000d0: 52d4 1ebc a336 1c3c 613e ecbb ffe5 c8bc
000000e0: dd45 84bd 396c 30bd c172 093d 831a 49bd
000000f0: d6e2 023c 2d15 263c 0b54 713b 5b5f 083d
00000100: 0a76 0d3d 5673 3dbd ce64 a33c 697e e33c
00000110: 8a31 443d db8d 8b3c 6f90 19bd 0b10 4e3d
00000120: c79a b5bb c579 59bd 378f 193d cbe4 fc3c
00000130: dfde 983c fc87 ac3c 232f 703d 3f89 04bd
00000140: b859 41bd 25bd 9f3c f669 ecbc 6e38 a1bc
00000150: 55a3 2dbd ecc6 d2bc c510 e33b fe0c bdbd
00000160: caf5 813d b180 d93c 3c28 c3bc 9d20 7dbc
00000170: 4a53 553d ced1 98bc 88e6 30bd 2e2d 953d
00000180: de8c ff3c 5ec3 af3c 5081 bdbc 7047 f4bb
00000190: fd99 103c df5c 6e3d b617 083b 69ea 033d
000001a0: 5659 09bd 200a 00bd d8c7 56bb 197a b63b
000001b0: 9221 e53c 0ccd 453c 9b7a e43c 2868 65bb
000001c0: b6b4 bd3c df68 96bc 2dcc ce3c 24ab c1ba
000001d0: 90df 823b b70a 113d 08a7 4c3c c289 a3bc
000001e0: a4a4 07bd 01ec 4fbc 2457 723d 4cea 92bd
000001f0: bac0 453c afb3 133d 87e3 173d 91f4 923d
00000200: c87f 70bd b6b2 bbbb d025 49bd ea70 823d
00000210: 148b b23c 67cf 063d b83e 323c d9e6 c8bd
00000220: 3926 d53d 908c 723d e0bd 9f3c 0907 963d
00000230: 2f02 863d fee9 503d e728 b03d 6601 99bc
00000240: 8f68 0e3d 5660 babd c6c2 8e3d 8db4 6bbd
00000250: dc3c a5bd 6937 be3c 78cc c0bd e2ab 88bc
00000260: c8ac 823d 3029 8abd 178c e43b 2a8c 183d
00000270: f8e4 9a3b 1cbd 723d 607f aebc d655 8e3d
00000280: f5a3 933c 24c5 89ba 8684 4bbd 12fa aa3c
00000290: b5f8 163d c247 ab3d 48e5 b63d e786 283c
000002a0: da88 c6bd c03e 96bb 99f5 e53c a8d6 b4bc
000002b0: a37e dd3c 76c0 703d 3c17 663d cb09 97bd
000002c0: 59b6 84bd a46f 093d 2873 d5bc 0008 633d
000002d0: a65c 8b3c 2e97 253d 2fe4 2f3c 04bd bc3d
000002e0: 2c03 15bc 993b 77bc 2299 2abd a0a2 b9bc
000002f0: 6c69 eebb bb24 b83c 776a 5fbd a12f 053d
00000300: fe7e ebbc 821c 013d 37f2 b8bd ae2f 2b3d
00000310: a5e8 183c fe7c abbd e643 8abd 27ed 54bd
00000320: a33c fd3b 14b7 22bc ba81 6ebc 03a8 5cbd
00000330: 3380 b5ba a736 a1bd e9c3 7fbc f0cc 173d
00000340: 38fd abbb 06b4 73bd baa2 26bd 2459 c6bd
00000350: ce6c dcbd ea7f 10bd 5152 c6bd 7196 7ebd
00000360: fc62 303a 6319 c0bd a1eb b9bd 9cfe b0bc
00000370: d992 4fbd db06 1f3d 1d9f 3bbd 59dd bfbc
00000380: 3903 8fbd 518b 08bd 3756 533d 5cb2 9cbd
00000390: c232 dc3c 1513 cdbc 393b b63c bbc4 81bc
000003a0: b2e7 2c3d 55ad 8ebd 0a0d b73d 0ffe c2bd
000003b0: eb88 81bd ae3b 92bd 94ab 423d 9556 e83c
000003c0: 1c92 62bd e8b5 963d 8542 b2bd 529e 723d
000003d0: 8f6c 77bd 3489 373d f60d 8a3d fe83 f13c
000003e0: 7a5d f9bd 798e 813d f3c2 583d c854 92bd
000003f0: aa80 db3c da89 a63d 79d7 99bd 99e0 85bc
-0.05824417 0.059700947 0.036047433 0.031820573 0.0767389 -0.047513828 0.079642706 -0.013119408
0.024363525 -0.026182272 0.023426602 -0.00089974474 -0.0074701468 -0.0037080005 -0.008630639 -0.06502244
0.053828273 0.014246049 -0.07843879 0.014241642 -0.01997145 0.019183043 -0.030253628 -0.07468946
0.029056113 -0.033522654 -0.10002817 0.04623371 0.045090556 -0.02112505 0.058936357 -0.028224569
-0.064421296 0.0214161 0.0371191 -0.008102383 0.04917366 -3.3818833e-05 0.046385832 0.041480124
-0.010873093 0.033092864 0.0006721055 -0.04545372 0.0066950014 -0.031212203 0.021253932 0.0111893285
-0.00048356148 0.061724402 -0.06979443 -0.01597104 -0.009694176 0.009534511 -0.0072095846 -0.024523733
-0.06458638 -0.04307196 0.033556703 -0.04909755 0.007988652 0.010136885 0.0036823775 0.033294063
0.0345364 -0.04625257 0.019945528 0.027770238 0.047898807 0.017035415 -0.03749126 0.05030827
-0.0055421325 -0.053094644 0.037490096 0.030870816 0.01866096 0.021060936 0.058638703 -0.03235745
-0.047204703 0.01949937 -0.02885912 -0.019680228 -0.042392094 -0.025729619 0.0069294893 -0.09230994
0.06345709 0.026550623 -0.023822896 -0.01544967 0.052081384 -0.01865473 -0.0431886 0.07284008
0.0311951 0.021455463 -0.02313295 -0.007454805 0.008825776 0.058194038 0.0020766086 0.032205973
-0.033532463 -0.031259656 -0.0032772925 0.0055687544 0.02797011 0.012072813 0.027890494 -0.003500471
0.023157459 -0.018360553 0.025243843 -0.0014775735 0.003993936 0.03541061 0.012490995 -0.019963149
-0.033115998 -0.012690545 0.059165135 -0.07173595 0.012069875 0.03606003 0.03708222 0.071755536
-0.05871561 -0.005728091 -0.049108326 0.06369193 0.021794833 0.032912638 0.010879211 -0.09809656
0.10407681 0.059216082 0.01949972 0.073255606 0.06543385 0.051004402 0.086015515 -0.018677425
0.034767684 -0.09100406 0.06970744 -0.057545234 -0.08068249 0.023219781 -0.09413999 -0.016683523
0.06380612 -0.06746137 0.006974708 0.037243046 0.0047270022 0.05926238 -0.021300972 0.06949966
0.018022517 -0.0010511023 -0.04968693 0.020871196 0.03685828 0.08363296 0.08930451 0.0102860695
-0.09694071 -0.004585117 0.028071212 -0.022075012 0.027037924 0.058777295 0.0561745 -0.07374915
-0.064800926 0.033553734 -0.026055887 0.05542755 0.017011952 0.04042738 0.010735556 0.09215739
-0.0090949945 -0.015089893 -0.041649945 -0.022660553 -0.007275751 0.022478452 -0.054544892 0.032516126
-0.028747078 0.031521328 -0.09030574 0.041793518 0.0093328105 -0.0837345 -0.06751232 -0.05198398
0.0077281757 -0.009931345 -0.014557296 -0.053871166 -0.001384741 -0.07871752 -0.015610673 0.037060678
-0.005248692 -0.059497856 -0.040682532 -0.09684971 -0.1076294 -0.03527824 -0.09683669 -0.06215519
0.0006728617 -0.09379842 -0.09078146 -0.021605782 -0.050677154 0.038824897 -0.04580604 -0.023420976
-0.069830365 -0.033335987 0.051595893 -0.07651207 0.026879672 -0.025033513 0.022245036 -0.015840879
0.04221315 -0.06966654 0.08938034 -0.09521114 -0.06324943 -0.07140289 0.04752691 0.028361598
-0.055315122 0.073589146 -0.08704094 0.059233017 -0.060406264 0.04480858 0.06740944 0.029481884
-0.12176032 0.06326003 0.052920293 -0.07145077 0.02679475 0.08131762 -0.07511801 -0.016342448

action_model._continuous_distribution.mu.bias f4 [2]
00000000: b088 8b3c 825c 683d
0.017032951 0.056728847

action_model._discrete_distribution.branches.0.weight f4 [1, 128]
00000000: fac3 06bc 6b7d 0f3c bf86 3dbc 5009 e03b
00000010: ca67 4fbb 52fd cdbb 6f7c f63b af6c 913a
00000020: 59df 0d3c 8b85 14bc d2c5 5a3c eb91 883c
00000030: 20f3 793b b532 f93b 1453 4bbc 4a4b 07ba
00000040: 4d9f e7ba 5bb5 713b 41a9 153c 9f9c cc3c
00000050: 5058 8eb9 7fde a53b 607c 1a3c 55a0 01bc
00000060: be3c 333c 4050 5e3c 4826 39bc c921 90bc
00000070: f397 9c3b 3dc4 5abc 1c6d cbbb 7ae0 58bc
00000080: 0d43 36bb e0d2 43bb 4d6f ccbb ab22 86bb
00000090: 3ba4 5b3b f8d3 943c 0188 04bb 6e4b cb3a
000000a0: f79c ffbb 82a9 5d3c 10e5 903c bf8a 8abc
000000b0: 37b8 133c f229 f2bb 3b85 04bc 2c84 ad3a
000000c0: f6d4 433a b3f9 da3b 08a4 f9b8 b033 cf3b
000000d0: 3bc6 edbc 4590 573b f859 3abb 1f2b e3bb
000000e0: b765 03bb dcdc 1b3c 9d2b 4fbc baf4 1bbc
000000f0: 4bca 2b3b 7a30 f7ba 81b7 95bb 0159 1f3c
00000100: b3a9 153a 93b4 cfbb ebdd 313c 50a7 69bb
00000110: d725 9dbc 70aa a6bb 6382 643b 86eb 333b
00000120: e320 7e3b 1a71 033a f28b eb3b 6bf2 103c
00000130: 5254 beb8 32fe ab3a e206 533c 937c 503b
00000140: f758 a4bc 1a7a 673b fa98 acba 5374 bd3c
00000150: 0ed0 2fbc e104 053c 864f 8d3c cf37 3a3c
00000160: c70a c5bb 1805 a2bc 3d4c b5ba 7b40 f0b6
00000170: 2852 83bc 9318 30bc 1f9c 8fb9 17d6 d8bb
00000180: 92be abbb d063 f13b 1a5d 60ba f2d9 5f3b
00000190: 85e0 413b 59a4 8e3a c339 19bb 8947 3c3c
000001a0: bf09 9abb f3c3 743b d349 b7bb 52f1 853b
000001b0: a48a 96bb 878c 873c 782e 35bb 7a24 bc3a
000001c0: 0132 903b 6f27 a3bb 6fdb 303a 83cf 663c
000001d0: 9b96 03bb 0551 543b c96a 25bc 23f8 663b
000001e0: e2fd 733c ef42 953b 9687 8f3b f61c 3c3b
000001f0: 0a5f debb 815c b4ba c26f 7f3a 7736 a23b
-0.008225435 0.008757929 -0.0115677705 0.0068370476 -0.0031647556 -0.0062863017 0.007522158 0.0011095012
0.008659207 -0.009065042 0.013352828 0.016671142 0.0038139299 0.0076049217 -0.012409944 -0.000516106
-0.0017671377 0.0036881778 0.009134592 0.024977027 -0.00027150149 0.005061924 0.009429067 -0.007911761
0.010939775 0.013568938 -0.011300631 -0.017594235 0.004778856 -0.013352451 -0.006208075 -0.013237113
-0.0027810961 -0.002988033 -0.006238854 -0.004093488 0.0033514637 0.01816748 -0.0020222666 0.0015510151
-0.007800694 0.013529183 0.01768735 -0.016911862 0.009016088 -0.007390254 -0.008088405 0.0013238243
0.00074703933 0.0066825985 -0.000119037984 0.0063233003 -0.029025188 0.0032892388 -0.0028434973 -0.0069326307
-0.002004964 0.009513106 -0.012644676 -0.009518797 0.0026213105 -0.0018859052 -0.0045689945 0.00972581
0.0005709186 -0.006338665 0.010856132 -0.0035652705 -0.019183083 -0.0050862357 0.0034867756 0.0027453615
0.0038776926 0.0005014107 0.0071883136 0.008846859 -9.075612e-05 0.0013122021 0.012880059 0.0031812533
-0.020061953 0.003532058 -0.0013168149 0.023126757 -0.010730756 0.008118839 0.017249834 0.011365845
-0.0060132477 -0.01977782 -0.0013831925 -7.160064e-06 -0.016030386 -0.010748046 -0.00027391405 -0.0066173184
-0.0052412236 0.007366635 -0.0008558795 0.0034157005 0.0029583287 0.001088272 -0.0023380376 0.011491665
-0.004700869 0.003734824 -0.0055935173 0.0040876055 -0.004594164 0.0165465 -0.0027646106 0.0014354133
0.004400492 -0.004979066 0.00067465653 0.014087561 -0.0020078782 0.0032396924 -0.01009626 0.0035243116
0.014892073 0.0045550982 0.004380177 0.0028703786 -0.006786232 -0.0013760478 0.0009744131 0.0049503404

onnx::Div_80 f4 [52]
00000000: 5221 f83e 3e60 d03e f622 bf3e e081 a93e
00000010: 4c01 f63e e46c ce3e 1f6b ba3e 1f5b a83e
00000020: 67ef f63e b622 c93e ab96 c33e 6d0a a83e
00000030: 23ef ef3e cc0a c43e b560 b53e 89bd a43e
00000040: b11a f33e 94b5 b93e 43d0 c73e 463f a43e
00000050: 52c7 e53e 4cf1 b23e 3716 b03e 5260 9f3e
00000060: 010b ee3e 995d a53e 9fe9 cb3e 900c 9f3e
00000070: 0bf3 d83e 0997 9e3e 907c aa3e d848 993e
00000080: 2676 e93e 31d0 8f3e 66fd cf3e c77f 993e
00000090: f1a4 cb3e 7385 8a3e 42d4 a43e cd4d 933e
000000a0: 976c e63e b2cb 773e cefb d33e c045 943e
000000b0: eaab bf3e 4a06 733e e749 9f3e 0623 8e3e
000000c0: 993c e53e 320e 583e 06b3 d73e afc6 8f3e
0.4846292 0.40698427 0.3733136 0.331069 0.48047864 0.40317452 0.36409852 0.3288202
0.48229524 0.39284295 0.38200888 0.32820454 0.46862134 0.38289487 0.35425344 0.32175854
0.474813 0.36271346 0.3902608 0.32079524 0.44878632 0.3494972 0.3439195 0.31128174
0.4649277 0.32297972 0.39826676 0.31064272 0.42372927 0.30974606 0.3329816 0.29938388
0.45597953 0.28088525 0.40623015 0.299803 0.39774278 0.2705494 0.3219319 0.28770295
0.45004722 0.24198797 0.4140305 0.28959465 0.37435848 0.23732868 0.3111107 0.27761096
0.44772795 0.21099165 0.42128772 0.2808127

onnx::Div_83 f4 [3]
00000000: 0ec3 9a40 50c5 b93a a4de 9640
4.8363104 0.0014173184 4.714678
